Modelos/FAIR_MF/Modelo CTRPv2/models/MF/checkpoints/CTRPV/split_0/best-model-64.ckpt (torch, 354712 bytes, 2 tensors)

user_embedding.weight f4 [829, 64]
00000000: 863b acbd 2242 e9bd 4891 fcba 66d6 70bd
00000010: a444 14bd 393e 78be 51d0 abbd 22cb c9bd
00000020: beb0 cbbd e462 19bd b400 c23d 4677 673e
00000030: b4bf d73d e6fa 033e 250c 3dbe 1a16 93bd
00000040: 4d1b cfbd 909b df3d b23d 7e3d d0ac 55bd
00000050: 0931 e13d 09e4 02bd 0828 b53e a18c debd
00000060: cba6 0bbe 9c23 913e 662f 803e 359d 463e
00000070: d706 0c3e 612c 9e3e 32ba 263b 09dd 943e
00000080: b61f b33c 195c 91bd ce5d f13c a6a3 9a3d
00000090: f9b6 eabd 0786 663e df2a 643e 18f9 5dbe
000000a0: 6331 7a3e 7b27 ea3d f571 47be c3e0 ecbd
000000b0: bafc aabc a51f 5cbd 3541 14be ab7b 85be
000000c0: 30a5 56be 6c71 843e 7654 9abd aeb9 253e
000000d0: 8401 83bd 643d 87be b067 6ebe 3f16 c6bc
000000e0: 1b7d 94bd c10a b53d ba20 643d 77dc 2b3e
000000f0: c7fe 2fbe 1a68 00be eb27 20bd 9217 bbbe
00000100: fd30 1bbd e2c6 773b 699b c0bd 0ee7 153d
00000110: 9dc7 94be 0005 b8be 2d5d debd 26df 1a3e
00000120: 15e9 653e 2c05 06be b1c2 193d a240 573d
00000130: ad0e 56bd d1c7 683d 6558 99bd da37 13be
00000140: f947 44bd 33da 603e 8b87 cc3c a800 2abe
00000150: 800e 983d fa03 82bd 7608 85bd e12b 89be
00000160: 3cd0 b13d 95e7 933d 8b28 ee3d 5caf 9d3e
00000170: d980 b83d dc2b b23d a4a6 803e 88af fcbd
00000180: 820f 76be a5dc 46be a438 8a3e 0a75 203e
00000190: 4bc2 363c 3ec3 073e da25 493e 1b0b 5abe
000001a0: bcc7 04be 882a ea3d 0305 52be 8fa6 05be
000001b0: c683 b53e 579a 83bd ef22 57be 4223 c4be
000001c0: 64cc de3c 94a2 3fbe 2879 e53d 6927 853e
000001d0: c4bb f03d 494e a7be 57db 52be 8481 b6bd
000001e0: 98a9 9a3e e3c2 78be 637c 7e3e 1772 bbbc
000001f0: 37ce 05be 9077 f0bd 62b6 51be 5768 74be
00000200: 6450 2ebe 1943 45bc 16ad 5abe 218b efbd
00000210: a8c4 c43c 147b b5bd 44ea d3bd cadd ab3e
00000220: a0b2 22bc 0748 1abe 5a60 493d 68c0 443d
00000230: 7ea0 403e fbf9 923e 7089 c9be 7af8 6dbe
00000240: 60c4 f8bd 798d 683e aaf2 fa3c fe29 36be
00000250: 3c61 633e 4fc4 893e d3b1 3f3c df52 57be
00000260: 36aa f3bd 6b7a f93d cc7f dc3d 3399 f13c
00000270: 714d fe3d ce5b cd3d e95e 1a3e a034 9d3d
00000280: c9b2 183d 9269 8abd 26ec 2e3e c9e5 873c
00000290: f1ca 14be c9fe 123e b3b7 0f3e 7735 3ebe
000002a0: e77e 99bd 828c 203d 4681 0bbe a158 5bbe
000002b0: 4142 803e cbd7 843d 05f7 2abc 322c 53be
000002c0: 1a6f 363e bafc c43d 0bf3 b83d 787a 8a3e
000002d0: 5688 bfbb 2a0e dabd f6ef b0bd 7898 6d3d
000002e0: bf05 de3d 9158 b3bd e2e0 46bd 05fc bdbb
000002f0: 4895 63be 7096 bebd a63a 64bd 2dee 3fbe
00000300: de6a 24be 18d7 0abe b86b 74be 3456 19be
00000310: 7c53 e9bc df2f aabe eaeb 4dbe 7eec 223c
00000320: 16fa a0be f7dd 3f3e 4309 783e a5f5 963e
00000330: ffe7 b3bd 4540 703e 6290 b1bd ab23 46bd
00000340: c70a 15be f225 703e 0e49 89bd cfee 983c
00000350: 0d24 c33d 6d0c 153d a0f7 433d e203 57be
00000360: fc87 bdbd d3ac a43e f81e 123e 58b5 8f3d
00000370: 794a be3d 861b de3d 09f6 ca3d a978 fa3d
00000380: 974a 8fbd ade4 e8bd 8cd6 8c3e 99b3 fe3d
00000390: 0dc0 563c bd88 903d 2f8e 573e f860 d2be
000003a0: 6a72 383e c5b2 4e3c 8d40 3abd 5300 c1bb
000003b0: 7fa9 2a3e d462 c1bd ef08 093d f607 dbbe
000003c0: 33b8 ddbd 28b6 403e 4882 d73d 40a7 2f3e
000003d0: 5a45 42be 7e2a 82be 759f 52bc d20b 19be
000003e0: fd5a dd3e c745 863e 11ec 98bd cec6 013c
000003f0: 9a7c edbc 985f 62be 8c9d 73be 50c7 74bc
-0.08409791 -0.11389567 -0.0019269371 -0.058798216 -0.036198273 -0.24242486 -0.083893426 -0.09853198
-0.0994582 -0.037447825 0.0947279 0.22604093 0.10534611 0.12888679 -0.18461664 -0.0718195
-0.10112629 0.10918343 0.062070556 -0.05216676 0.10995681 -0.031955753 0.35382104 -0.108666666
-0.13637845 0.2834748 0.25036162 0.19395907 0.13674484 0.30893233 0.002544057 0.29074886
0.021865707 -0.07097644 0.029463675 0.07550745 -0.114606805 0.22512065 0.22281979 -0.21677053
0.24432902 0.114333116 -0.19477065 -0.115663074 -0.020872463 -0.053741116 -0.14478 -0.26070914
-0.20961452 0.25867784 -0.07535641 0.16184112 -0.063967735 -0.26414025 -0.23281741 -0.02418053
-0.072504245 0.08839942 0.055695273 0.1678332 -0.17187034 -0.12539712 -0.03910057 -0.3654142
-0.037888516 0.0037807752 -0.09404642 0.036597304 -0.29058543 -0.35941315 -0.108576156 0.15124187
0.22452195 -0.1308791 0.037539188 0.052551873 -0.05226009 0.056831185 -0.07487563 -0.14376774
-0.0479202 0.21958236 0.024966976 -0.16601813 0.07424641 -0.06348415 -0.064957544 -0.2679129
0.08682296 0.07221905 0.11628827 0.3079785 0.09008951 0.08699772 0.25127137 -0.123381674
-0.24029353 -0.19420107 0.26996338 0.15669647 0.0111547215 0.13258073 0.19643345 -0.21293299
-0.12966818 0.114338934 -0.20509724 -0.13051818 0.35452098 -0.06425922 -0.2100942 -0.3830815
0.02719707 -0.18714362 0.11204749 0.2600663 0.117545635 -0.32676914 -0.20591484 -0.08911422
0.30207515 -0.24293093 0.24852137 -0.02288155 -0.13066946 -0.11741555 -0.2047973 -0.23867927
-0.17022854 -0.012039923 -0.2135509 -0.116964586 0.024019554 -0.08861366 -0.10347417 0.3356765
-0.009930283 -0.15066539 0.049164154 0.048035055 0.18811223 0.28706345 -0.3936267 -0.23239318
-0.121468306 0.22710218 0.03063329 -0.17789456 0.2220506 0.26907584 0.011700111 -0.21027707
-0.118976995 0.121815525 0.10766563 0.029491996 0.124171145 0.10027276 0.15075268 0.07676053
0.037279878 -0.06758417 0.17082271 0.016589062 -0.14530541 0.14355005 0.1403492 -0.18575083
-0.07494908 0.0391965 -0.13623533 -0.21420528 0.25050548 0.06486472 -0.010434871 -0.20622328
0.1781582 0.09618516 0.09030732 0.2704656 -0.00584511 -0.10647233 -0.08639519 0.058006734
0.1084094 -0.08757127 -0.04855431 -0.0057978653 -0.22224915 -0.093060374 -0.055719994 -0.187432
-0.16056392 -0.13558614 -0.23869216 -0.1497429 -0.028482191 -0.33239648 -0.20109525 0.009944079
-0.314408 0.18737017 0.24222283 0.29484287 -0.08784484 0.23462017 -0.08670117 -0.04837386
-0.14554892 0.23451975 -0.06703387 0.01866856 0.095283605 0.036388803 0.047843575 -0.20997575
-0.092544526 0.32163104 0.14269626 0.070170105 0.09291548 0.108450934 0.09910209 0.12230045
-0.06996649 -0.113717414 0.27507436 0.12436599 0.013107312 0.07057331 0.21050332 -0.41089606
0.18012396 0.012615864 -0.045471717 -0.005889931 0.1666622 -0.09442678 0.033455785 -0.4277951
-0.10826149 0.18819487 0.10522896 0.17153645 -0.18971768 -0.25423044 -0.0128554 -0.14945915
0.4323348 0.2622511 -0.07466901 0.007920934 -0.028990079 -0.22106779 -0.23790568 -0.014940098

item_embedding.weight f4 [544, 64]
00000000: 65d9 553e bf9f 4b3d 45ce 75bc 1c58 02be
00000010: d80f 07be d55f 853e f1fb a2be 35df 97bd
00000020: 9c5c 1dbe a5f0 ffbd 38f1 3b3e 76a1 533e
00000030: bce8 1b3e 874d 4f3e 8809 f4bd 28d3 763d
00000040: a804 d73d 06ed 813d bd10 f63d 8a0f 9dbc
00000050: a1b7 623e a3e3 74bb 9817 f13d d20c 0fbc
00000060: 34a5 cbbd a7f7 373e 60bf 3a3e 0153 db3d
00000070: 947c 613e 2b7a b43d 413f 5c3e 696d 1ebd
00000080: 6a63 f9bd 544a 58be ba0e 473e 9d44 123d
00000090: 2740 97bd ad69 813e 731c f83d 147c af39
000000a0: 95e4 023e 80f5 1c3e 2922 c0bd 5c04 f6bd
000000b0: f5a1 ba3d 45a7 893c 8a55 ebbd 5e8b 0dbe
000000c0: 8f17 b73d 2d45 8dbc 48ad c1bc 8164 713e
000000d0: 946a 73be 6cb4 a13d 3227 d9bd 0c0d f8bd
000000e0: a157 ae3c beb6 77bd 3bd1 ef3b 2d59 cfbd
000000f0: eaa7 67be 7cf2 783e 7b3c b83d e4c5 89be
00000100: 0e13 113d a6cf f73d 95bb d43d 0bd4 a9bd
00000110: 6b8d 52be 4fc1 8fbd 127d 95be aa75 ef3c
00000120: 2d5e d9bd 1a2d 10be e03a d23d a672 3a3e
00000130: 6b54 943d 024a 143e 5cfc d8bc 3523 3abe
00000140: 8940 153e 7e1d ab3d d69e 313e 22d2 9fbe
00000150: 7310 2b3d d382 7abd b7a7 0f3e ff35 28be
00000160: cd68 88bd 3b0a 03be cf11 a73e b187 acbd
00000170: b185 b83d 1150 403e e18d ed3d 709c e73d
00000180: 1bda 13be a50a 68be 80ee 843e 434c 243e
00000190: b743 b8bd 75b9 6c3e 6d49 833e 682c acbd
000001a0: a759 4abd fdc4 853e e1ac 8dbd 2e6c 08be
000001b0: 8796 4c3e eee8 8cbd df0c 9f3c b6df 973b
000001c0: dd0d b83d e3ee f03d 3527 2a3e 259d 493e
000001d0: 750f e53d 0ac4 82be b7a9 80be 7e94 19bd
000001e0: 26c7 6c3e 5091 19bc 3757 bf3d c5c3 c3bd
000001f0: 8404 a2be 2707 713d 64d9 13be 2083 98be
00000200: 1675 92bd 5f77 5b3c 3dbb 253e fbeb 45bd
00000210: a738 e2bd e0aa c53d 80d9 b0be d6c0 16be
00000220: d18f 48be 1997 4b3d 1384 843e 7c8f 033e
00000230: bc45 c0bc de69 503d 65ee 0ebe 1183 89be
00000240: 7b7e 9c3d bcfe dabd 89c9 593e 6bb1 25be
00000250: 3dd2 a63d 07f8 4f3e 8218 233e dcc8 18be
00000260: a526 98be 78e8 ddbd 632a 273e 281f c73d
00000270: fb35 78bc a70e a43e 861c b63d c8fb b63c
00000280: 8530 16be 8712 e6bd dff9 9a3e c91f 4e3e
00000290: da28 05be fd6d cb3c 6671 233e b37f f13d
000002a0: b5a0 343e 8490 023e 0c24 a33d 58b6 b1be
000002b0: 58be d83d fca8 acbd 1904 e3bc adaf 1abe
000002c0: 53f9 2a3d 15d7 993d 88b7 113e d86d 013e
000002d0: d554 adbe 3876 943d cd59 8bbe 2365 6cbe
000002e0: 4490 5e3e 28ba 04be 1684 61be 039d bb3d
000002f0: a654 76be dad6 2b3e 1b3e 42bd 1abf 8fbe
00000300: 0aea 1abe 596f 303d fad7 dc3d c868 54be
00000310: 1f7e 38be e623 c9bd 80af 80be a992 09bd
00000320: 0d33 33be 5549 37be 0cf9 2d3e 9b52 813e
00000330: 243f 453e ed41 193e ec6c 22be 439b a9bd
00000340: 022f 873a 487a 20be 1c54 af3d ac7d e4bd
00000350: e8dc f63d 406d d43d 127e 223e d381 92be
00000360: 30e1 0c3e ad1a e33c ffca a53e b63b 0ebd
00000370: ade9 293e 83b7 8d3e a76d 073e b546 1b3e
00000380: 863a 4fbe c790 95be dfb5 b13e 9f76 453e
00000390: f19b 0bbe d888 0a3e 07af 9a3e 9b1f 18be
000003a0: ad50 423d 07ea 483e 7d51 77be fe44 e7bd
000003b0: 54e0 523e 7f0d 1abd 1665 583d 0759 afbe
000003c0: 1582 7d3e d7db 333d f362 273e f600 513e
000003d0: 630e e83c 5553 99be 9e85 91be 5b5b f0bd
000003e0: e4a8 673e eda9 26be 37af 193e 1ceb 18be
000003f0: 008a a3be 9b6e 273e 876b 663d b384 99be
0.2088371 0.049712893 -0.015002792 -0.12728924 -0.13189638 0.26049677 -0.3183284 -0.0741562
-0.15367359 -0.12497071 0.18353736 0.20667061 0.152255 0.20244418 -0.119158804 0.060259968
0.10498935 0.06344037 0.12014911 -0.019172449 0.22140361 -0.0037367127 0.11772078 -0.008731084
-0.09943619 0.17965566 0.18237066 0.10709191 0.22020179 0.08812364 0.21508504 -0.03867856
-0.12177165 -0.21122104 0.19439211 0.035709966 -0.07385283 0.25275937 0.12114801 0.00033471046
0.1278251 0.15328026 -0.093815155 -0.1201255 0.09112922 0.016803393 -0.11490925 -0.13822696
0.0894004 -0.0172449 -0.023642197 0.23573495 -0.23771125 0.07895741 -0.10603179 -0.121118635
0.02128202 -0.06047701 0.0073186434 -0.10124431 -0.22622648 0.2431125 0.08995911 -0.2690879
0.035418563 0.12100153 0.10387341 -0.08292397 -0.20561759 -0.070192926 -0.29196984 0.029230911
-0.10613666 -0.14079705 0.10265136 0.18207797 0.07242664 0.14481357 -0.026487522 -0.18177493
0.145754 0.083552346 0.17345747 -0.31215006 0.041763734 -0.06115992 0.14028822 -0.16426848
-0.06660614 -0.12796871 0.32630774 -0.084243186 0.090098746 0.18780543 0.11599327 0.11309135
-0.1443867 -0.2266031 0.2596321 0.16044717 -0.089972906 0.23117621 0.25641957 -0.08406907
-0.049401905 0.26126853 -0.0691774 -0.13322517 0.19979297 -0.06880365 0.019415317 0.0046348227
0.08987019 0.11764314 0.16616519 0.19688852 0.11184589 -0.2554019 -0.25129482 -0.03749513
0.23122844 -0.009373024 0.09342807 -0.095588244 -0.3164407 0.05884471 -0.14438397 -0.2978754
-0.071512386 0.0133951595 0.16184707 -0.04832075 -0.11045962 0.096517324 -0.3454094 -0.14721999
-0.19586112 0.049704645 0.25882015 0.12847704 -0.023470752 0.050882213 -0.13958128 -0.26857808
0.07641312 -0.10693118 0.21268286 -0.16180961 0.081455685 0.20309459 0.15927318 -0.14920372
-0.29716983 -0.108353555 0.16324763 0.097227395 -0.015149589 0.3204243 0.08892159 0.022336856
-0.14666946 -0.112340026 0.30268762 0.20129313 -0.13003865 0.02483272 0.15961227 0.11791935
0.1763943 0.12750441 0.0796586 -0.3470943 0.1058318 -0.08430669 -0.027711915 -0.15106077
0.04174168 0.07511727 0.14230168 0.12639558 -0.33853784 0.07249111 -0.2721695 -0.23085456
0.2173472 -0.12961638 -0.22023043 0.09160807 -0.24055728 0.16781178 -0.04742251 -0.28075486
-0.15128341 0.04307494 0.10783382 -0.20743096 -0.18016861 -0.098213 -0.25133896 -0.03358713
-0.17499943 -0.17899068 0.16989535 0.25258335 0.19262367 0.14966555 -0.15861863 -0.08281567
0.0010313692 -0.15671647 0.085609645 -0.111567825 0.12053853 0.103724 0.15868405 -0.28614673
0.13757777 0.027722681 0.32381436 -0.034724914 0.16593046 0.2767907 0.13225423 0.15163691
-0.20237169 -0.2921202 0.3470907 0.19283532 -0.13633706 0.13528764 0.3021166 -0.14855807
0.04744022 0.19620524 -0.24152179 -0.11292456 0.20593387 -0.037610527 0.052830778 -0.3424761
0.24756654 0.043910827 0.1634634 0.20410523 0.028327173 -0.2994639 -0.28422254 -0.11736175
0.2262302 -0.16275759 0.15008245 -0.14933437 -0.31941223 0.16350786 0.05625489 -0.29984054
