Modelos/FAIR_MF/Modelo IMF DOTS 2023/models/MF/checkpoints/IMF_DOTS_2023/split_0/best-model-64.ckpt (torch, 120472 bytes, 2 tensors)

user_embedding.weight f4 [225, 64]
-0.17766887 0.23673865 0.15319633 -0.05806444 0.030339103 0.021366436 0.061252385 -0.013771908
0.21273568 -0.032527495 -0.11195541 0.2042398 -0.2246616 -0.002146646 -0.0067011854 -0.028810667
0.13408491 -0.29147 0.043165475 -0.062598415 0.16633362 -0.19528335 -0.16133888 0.21147665
0.19909476 0.09125596 -0.30934846 0.09020909 -0.14701138 0.020670505 -0.097592235 0.14797986
-0.0033949374 -0.31696525 -0.18050463 -0.15530281 0.23085374 -0.012450816 -0.0037787687 0.1065353
0.22253488 -0.2379506 -0.04028177 0.19590206 0.33259082 0.13942482 -0.06264915 -0.1489425
0.054794192 0.023005651 -0.048774377 -0.08473867 0.18097535 -0.12332324 -0.2242711 0.3193634
0.16140045 0.18725519 0.046865646 -0.026996007 -0.12454142 0.011366642 0.14025499 0.01322876
-0.029129945 -0.020453176 0.064328864 -0.20864351 -0.15212059 -0.33953923 -0.21695448 -0.15765074
0.35026082 0.22331923 0.33154958 -0.28935152 -0.3111181 0.22304536 0.08186478 0.222319
0.38841325 0.12543009 0.27499378 0.07430677 0.2903275 -0.107215814 0.098455645 -0.08623503
0.15658794 -0.34915265 0.19374552 -0.25595346 0.094364144 -0.17195477 0.1336094 0.06084483
-0.23179086 -0.024455708 0.30777755 0.080853075 -0.271987 0.30887833 0.1328788 -0.06393798
-0.2540951 -0.07448723 0.27378827 0.26450217 -0.24916469 -0.13316472 0.199612 0.31088945
-0.13188559 -0.24417007 0.2870306 0.027230721 -0.18429407 0.09317642 -0.30345637 -0.30821884
-0.3236593 -0.29188675 0.029291682 0.23623362 0.0039889575 -0.07833099 0.09399453 0.23634541
0.13289592 0.14327413 -0.117189504 -0.23557909 -0.38277066 -0.13525335 -0.07387063 0.06922331
0.31145576 0.115679994 0.2482278 0.09480384 -0.16323489 0.09541683 0.38304967 0.19693169
0.1788275 -0.21598978 0.18578932 0.0392948 -0.016562566 -0.08565266 0.22736828 -0.26821023
0.002882147 -0.0038822878 0.11693464 -0.0045007057 0.15366398 -0.15740551 0.009030985 0.03009785
-0.26685688 -0.055652745 0.10110464 -0.18959358 0.26051345 0.39469254 0.035503116 -0.15503518
-0.2447387 0.09671699 -0.10546493 -0.09431541 0.05844559 -0.23974796 0.3088106 0.12358205
0.13595873 -0.11796882 0.026856534 -0.18724965 -0.07629485 0.050271433 0.14986764 -0.017087154
-0.37500405 0.08553436 -0.005642934 -0.03950278 -0.27418914 -0.290106 -0.18752997 0.12261141
0.03932339 0.07976475 0.28804323 0.3588577 0.101838976 0.19250773 0.08047657 -0.06853118
0.027613502 -0.3739024 0.32000962 -0.41424167 0.034337092 -0.027434414 -0.1584711 -0.03290104
-0.22808424 -0.2593148 -0.12482923 -0.34814274 -0.024813943 0.013272302 0.24242084 0.005656993
-0.23390885 0.013372468 -0.034904324 0.18035653 0.07706609 0.14972562 -0.078469045 -0.14450516
0.34746084 0.37874484 -0.00097089366 -0.16258635 0.07503162 -0.15588883 -0.31601545 0.1389648
-0.12718491 0.05775987 -0.10250238 -0.04834399 -0.18433332 0.2599074 -0.024422657 -0.02756181
0.07134081 -0.07672048 -0.15286094 0.008248817 -0.042962104 0.013025338 0.09013508 0.029949473
0.19920553 0.24050675 -0.05113205 -0.33811104 -0.2623281 0.21161884 0.33494657 0.087620094
00000000: d4ee 35be 9e6b 723e 80df 1c3e fad4 6dbd
00000010: b689 f83c aa08 af3c c8e3 7a3d 92a3 61bc
00000020: 62d7 593e 8d3b 05bd e148 e5bd 3d24 513e
00000030: b10d 66be beae 0cbb 9e95 dbbb 5904 ecbc
00000040: 8e4d 093e 8e3b 95be 48ce 303d 9933 80bd
00000050: 5c53 2a3e 5cf8 47be 0536 25be 568d 583e
00000060: 7fdf 4b3e 68e4 ba3d ec62 9ebe 8bbf b83d
00000070: 278a 16be 3155 a93c 70de c7bd 0888 173e
00000080: 997d 5ebb 4549 a2be 35d6 38be b307 1fbe
00000090: ec64 6c3e 82fe 4bbc 38a5 77bb 2e2f da3d
000000a0: 2fe0 633e 52a9 73be 7ffe 24bd 8d9a 483e
000000b0: 5849 aa3e 61c5 0e3e 334e 80bd 6284 18be
000000c0: e06f 603d 5976 bc3c a4c7 47bd 788b adbd
000000d0: 9a51 393e e590 fcbd 53a7 65be 9983 a33e
000000e0: 2946 253e d3bf 3f3e 31f6 3f3d bb26 ddbc
000000f0: 920f ffbd 273b 3a3c 019f 0f3e 71bd 583c
00000100: eca1 eebc 6b8d a7bc dabe 833d a5a6 55be
00000110: 80c5 1bbe 16d8 adbe 5129 5ebe 326f 21be
00000120: 6355 b33e ccad 643e dec0 a93e e225 94be
00000130: df4a 9fbe 0166 643e b9a8 a73d 98a7 633e
00000140: 1ade c63e bf70 003e fccb 8c3e 262e 983d
00000150: cea5 943e f793 dbbd 1da3 c93d fe9b b0bd
00000160: 9758 203e 23c4 b2be 3a65 463e 550c 83be
00000170: fd41 c13d e914 30be e7d0 083e 6e38 793d
00000180: 955a 6dbe 5657 c8bc 0595 9d3e 4c96 a53d
00000190: e141 8bbe 4d25 9e3e 6111 083e eaf1 82bd
000001a0: c118 82be c38c 98bd fa2d 8c3e d46c 873e
000001b0: 0725 7fbe 555c 08be 1767 4c3e e72c 9f3e
000001c0: 040d 07be b807 7abe adf5 923e f612 df3c
000001d0: 96b7 3cbe 47d3 be3d a25e 9bbe dcce 9dbe
000001e0: acb6 a5be 2e72 95be 1cf5 ef3c 3ae7 713e
000001f0: cdb5 823b 006c a0bd 3480 c03d 8804 723e
00000200: de15 083e 74b6 123e 0d01 f0bd a53b 71be
00000210: 84fa c3be db7f 0abe 7c49 97bd f3c4 8d3d
00000220: 2177 9f3e a2e9 ec3d 6e2f 7e3e 8428 c23d
00000230: 0c27 27be e669 c33d 161f c43e 76a8 493e
00000240: 8e1e 373e 6d2c 5dbe 8e3f 3e3e 96f3 203d
00000250: 38ae 87bc a96a afbd 3bd3 683e da52 89be
00000260: 67e2 3c3b fb6d 7ebb 6e7b ef3d a87a 93bb
00000270: 175a 1d3e e92e 21be b2f6 133c c48f f63c
00000280: 77a1 88be 22f4 63bd f30f cf3d d224 42be
00000290: 0562 853e 2415 ca3e b76b 113d 8bc1 1ebe
000002a0: c89c 7abe 8f13 c63d fffd d7bd 7028 c1bd
000002b0: a564 6f3d 7d80 75be 6c1c 9e3e 9618 fd3d
000002c0: c438 0b3e a399 f1bd 3c02 dc3c 5fbe 3fbe
000002d0: 7940 9cbd 6be9 4d3d e776 193e 5cfa 8bbc
000002e0: 8800 c0be a32c af3d 5ce8 b8bb abcd 21bd
000002f0: 8562 8cbe c688 94be db07 40be b11b fb3d
00000300: 9011 213d b45b a33d 677a 933e 32bc b73e
00000310: f490 d03d bf20 453e e6d0 a43d 135a 8cbd
00000320: b635 e23c 2370 bfbe 4dd8 a33e 7c17 d4be
00000330: 0da5 0c3d 23be e0bc 3f46 22be 3ec3 06bd
00000340: ea8e 69be e9c4 84be 78a6 ffbd c43f b2be
00000350: 9c46 cbbc 1274 593c 2b3d 783e 4c5e b93b
00000360: cd85 6fbe 3218 5b3c d6f7 0ebd 62af 383e
00000370: d4d4 9d3d ac51 193e 61b4 a0bd 29f9 13be
00000380: 63e6 b13e d8ea c13e 9283 7eba 097d 26be
00000390: 2eaa 993d 52a1 1fbe c7cc a1be ca4c 0e3e
000003a0: c33c 02be 9d95 6c3d c5ec d1bd 5904 46bd
000003b0: e0c1 3cbe 9512 853e 0612 c8bc 4ec9 e1bc
000003c0: 211b 923d a11f 9dbd 9487 1cbe 0c26 073c
000003d0: 08f9 2fbd 3a68 553c be98 b83d 9958 f53c
000003e0: 89fc 4b3e 6747 763e d76f 51bd e41c adbe
000003f0: de4f 86be 9cb2 583e 1e7e ab3e 2a72 b33d

item_embedding.weight f4 [233, 64]
0.10707402 -0.120691754 -0.23362505 -0.2625803 -0.08668231 0.09933094 -0.10953265 0.025452815
0.31304392 0.39701423 -0.060972616 -0.042696577 -0.21038626 0.11457942 -0.08282246 0.26555482
0.06385605 -0.13202451 -0.018158594 0.16771641 0.10089362 -0.14254971 -0.07281108 0.015659045
0.3337805 -0.13785592 0.090952605 -0.09194658 -0.09873539 -0.21536599 0.17011286 -0.1297533
-0.2876555 -0.15086606 -0.16778848 0.13450535 -0.14237186 0.27415365 0.100360185 0.08311112
-0.19183184 0.068400666 0.20402868 0.26423997 -0.04293013 0.12594008 0.25139567 -0.006407884
0.16386451 -0.3458183 0.3164219 -0.049596727 0.046397164 -0.093119085 -0.23966043 0.058080964
-0.014896392 -0.0750433 -0.068509586 -0.05593364 -0.06476115 -0.18458858 -0.15760456 -0.074039415
-0.08642559 0.022218479 -0.08518925 -0.031654958 -0.30545056 0.04196324 -0.39924344 -0.15248665
0.46334776 -0.024036909 0.2513727 -0.10229694 -0.4012836 0.42021778 0.20754375 0.29465204
-0.050508182 -0.28843135 0.37280148 -0.0043712696 0.23390919 -0.3858691 0.2718823 -0.3548763
-0.27282885 0.10960798 -0.244563 0.3551071 0.23258534 -0.31038976 -0.23492217 -0.21559896
0.09982011 0.20157847 0.018047776 0.21703066 0.45609295 0.32037252 0.055978257 -0.28329015
-0.03918774 -0.11069705 0.15202822 -0.14978394 -0.1738681 -0.10747268 0.33213186 0.39704505
0.17459473 -0.41294816 0.14445521 -0.21453942 -0.2021965 0.2806234 -0.03602298 -0.029901357
-0.2735161 0.07864722 -0.3984394 -0.073406026 -0.32444715 0.06545552 -0.14015767 0.18802935
-0.031423114 -0.17221431 -0.008107122 0.018890936 -0.3165564 0.15575102 -0.1187858 0.21824253
0.22783932 -0.18346146 0.38167673 -0.2574983 -0.06979255 0.2850038 0.08535376 0.22749196
0.06945428 -0.33791476 0.32402426 -0.027974369 0.11417667 -0.3304596 0.40107894 -0.19178279
-0.21184535 -0.17109883 0.16528137 0.17591359 0.11360682 0.065125465 -0.07608598 -0.21740335
-0.05202138 0.3882312 0.054566015 0.26131508 0.24260978 0.1287258 0.10521021 -0.060444985
-0.30024922 0.17142478 0.003258647 -0.13810496 -0.121211715 0.03204161 0.09964911 -0.024058156
0.015523918 -0.24491227 0.104248166 -0.30602267 0.16388364 0.3564749 -0.043405615 -0.045330774
-0.2414271 -0.1487991 -0.36806494 -0.34427905 -0.16598542 -0.010178747 0.13578296 -0.08532304
0.19421333 -0.21990828 -0.20551832 -0.21377283 0.20371003 -0.27123868 -0.017387278 0.14312461
0.11631434 0.09026284 -0.21936096 0.124418244 -0.1757614 -0.17179967 0.05029634 -0.19056182
0.17947626 0.18276502 -0.112223096 0.3187126 -0.12751478 0.23255102 0.07371147 0.04979922
-0.025577461 -0.24987882 -0.12306668 -0.23018289 0.1539687 -0.065123126 0.037151862 -0.097142145
-0.18655196 -0.09427392 -0.00058156985 0.0771072 0.035087563 0.07359302 -0.026545752 -0.096919626
0.10110988 0.27128688 0.028987683 0.16691509 -0.16513734 -0.37450352 0.12011737 0.3617305
-0.07033162 -0.00077261485 -0.061732214 0.0068945363 -0.2503935 -0.30916616 -0.051299226 -0.14290121
-0.35420957 -0.08238613 0.008460228 0.1880614 -0.20843947 -0.08698725 0.09262767 0.11215367
00000000: a049 db3d 3d2d f7bd 683b 6fbe ed70 86be
00000010: 7f86 b1bd 056e cb3d a752 e0bd 6c82 d03c
00000020: 4b47 a03e 7345 cb3e 6cbe 79bd 9be2 2ebd
00000030: 7f6f 57be 9da8 ea3d d29e a9bd cdf6 873e
00000040: f6c6 823d 6f31 07be 55c1 94bc dabd 2b3e
00000050: 50a1 ce3d 8df8 11be fa1d 95bd 6647 803c
00000060: 47e5 aa3e 1a2a 0dbe 5c45 ba3d 7d4e bcbd
00000070: c835 cabd e788 5cbe 1132 2e3e 0dde 04be
00000080: 9547 93be a27c 1abe bed0 2bbe c5bb 093e
00000090: eec9 11be de5d 8c3e a489 cd3d 2a36 aa3d
000000a0: 916f 44be a615 8c3d e5ec 503e 764a 873e
000000b0: 81d7 2fbd 70f6 003e efb6 803e 3af9 d1bb
000000c0: 19cc 273e 190f b1be 0d02 a23e f025 4bbd
000000d0: f40a 3e3d 38b5 bebd 8b69 75be 4ee6 6d3d
000000e0: ff0f 74bc 4db0 99bd c14e 8cbd ac1a 65bd
000000f0: 7ea1 84bd ca04 3dbe 1763 21be faa1 97bd
00000100: e6ff b0bd 8703 b63c b477 aebd a1a8 01bd
00000110: 0464 9cbe a5e1 2b3d a369 ccbe 7625 1cbe
00000120: eb3b ed3e 0de9 c4bc ecb3 803e 0f81 d1bd
00000130: 0b75 cdbe c926 d73e 5986 543e a2dc 963e
00000140: abe1 4ebd 46ad 93be d6df be3e de3c 8fbb
00000150: e485 6f3e a290 c5be 2834 8b3e 59b2 b5be
00000160: 39b0 8bbe 267a e03d b96e 7abe 99d0 b53e
00000170: da2a 6e3e 68eb 9ebe 708f 70be f9c5 5cbe
00000180: 7c6e cc3d 966a 4e3e eed8 933c 493d 5e3e
00000190: 0485 e93e de07 a43e 7549 653d 680b 91be
000001a0: 5383 20bd 23b5 e2bd 49ad 1b3e f660 19be
000001b0: 7b0a 32be a31a dcbd 300d aa3e 7d49 cb3e
000001c0: f6c8 323e f16d d3be 11ec 133e 39b0 5bbe
000001d0: 990c 4fbe dfad 8f3e d58c 13bd b1f3 f4bc
000001e0: 4d0a 8cbe cb11 a13d 4000 ccbe e655 96bd
000001f0: f01d a6be 8b0d 863d 7e85 0fbe c48a 403e
00000200: 86b5 00bd f358 30be bcd3 04bc 2ac1 9a3c
00000210: ae13 a2be 327d 1f3e f845 f3bd f87a 5f3e
00000220: b64e 693e 52dd 3bbe 226b c33e d1d6 83be
00000230: 65ef 8ebd 05ec 913e f4cd ae3d a7f3 683e
00000240: 0c3e 8e3d 2a03 adbe 82e6 a53e 812a e5bc
00000250: 75d5 e93d 0032 a9be 385a cd3e b562 44be
00000260: fded 58be 8834 2fbe 853f 293e b122 343e
00000270: b1aa e83d 8060 853d f7d2 9bbd fc9e 5ebe
00000280: 5f14 55bd 3dc6 c63e 9d80 5f3d 17cb 853e
00000290: b36e 783e b2d0 033e 7378 d73d 2995 77bd
000002a0: 44ba 99be fa89 2f3e 068f 553b 636b 0dbe
000002b0: d93d f8bd 103e 033d d514 cc3d 9c15 c5bc
000002c0: 0858 7e3c 48ca 7abe 1080 d53d 01af 9cbe
000002d0: 1dd1 273e e183 b63e 16ca 31bd c3ac 39bd
000002e0: aa38 77be cb5e 18be 0273 bcbe 5845 b0be
000002f0: 15f8 29be c2c4 26bc b00a 0b3e d9bd aebd
00000300: dcdf 463e a32f 61be 6573 52be 44e7 5abe
00000310: 5d99 503e ccdf 8abe c46f 8ebc 428f 123e
00000320: 3636 ee3d b9db b83d 29a0 60be fece fe3d
00000330: ccfa 33be 41ec 2fbe 8903 4e3d a322 43be
00000340: a0c8 373e c126 3b3e 39d5 e5bd 4c2e a33e
00000350: 3c93 02be db21 6e3e 0af6 963d 44fa 4b3d
00000360: d387 d1bc 3ce0 7fbe 620a fcbd 10b5 6bbe
00000370: f9a9 1d3e 465f 85bd 8d2c 183d 76f2 c6bd
00000380: 7a07 3fbe af12 c1bd 7e74 18ba 61ea 9d3d
00000390: fab7 0f3d f0b7 963d 7a76 d9bc cc7d c6bd
000003a0: b212 cf3d 1de6 8a3e 9477 ed3c caeb 2a3e
000003b0: c319 29be edbe bfbe 1800 f63d bd34 b93e
000003c0: 060a 90bd 4e89 4aba ebda 7cbd 90eb e13b
000003d0: 9433 80be 074b 9ebe 231f 52bd b254 12be
000003e0: f55a b5be 0fba a8bd c59c 0a3c 2b93 403e
000003f0: 2871 55be 5f26 b2bd 93b3 bd3d d3b0 e53d
